{"Run description": "rgb 60 size", "_timestamp": 1682914461.534756, "_runtime": 22212.265198946, "_step": 8764, "model details": "ResNet(\n  (res_net_1): ResNet(\n    (conv1): Conv2d(4, 64, kernel_size=(7, 7), stride=(2, 2), padding=(3, 3), bias=False)\n    (bn1): BatchNorm2d(64, eps=1e-05, momentum=0.1, affine=True, track_running_stats=True)\n    (relu): ReLU(inplace=True)\n    (maxpool): MaxPool2d(kernel_size=3, stride=2, padding=1, dilation=1, ceil_mode=False)\n    (layer1): Sequential(\n      (0): BasicBlock(\n        (conv1): Conv2d(64, 64, kernel_size=(3, 3), stride=(1, 1), padding=(1, 1), bias=False)\n        (bn1): BatchNorm2d(64, eps=1e-05, momentum=0.1, affine=True, track_running_stats=True)\n        (relu): ReLU(inplace=True)\n        (conv2): Conv2d(64, 64, kernel_size=(3, 3), stride=(1, 1), padding=(1, 1), bias=False)\n        (bn2): BatchNorm2d(64, eps=1e-05, momentum=0.1, affine=True, track_running_stats=True)\n      )\n      (1): BasicBlock(\n        (conv1): Conv2d(64, 64, kernel_size=(3, 3), stride=(1, 1), padding=(1, 1), bias=False)\n        (bn1): BatchNorm2d(64, eps=1e-05, momentum=0.1, affine=True, track_running_stats=True)\n        (relu): ReLU(inplace=True)\n        (conv2): Conv2d(64, 64, kernel_size=(3, 3), stride=(1, 1), padding=(1, 1), bias=False)\n        (bn2): BatchNorm2d(64, eps=1e-05, momentum=0.1, affine=True, track_running_stats=True)\n      )\n    )\n    (layer2): Sequential(\n      (0): BasicBlock(\n        (conv1): Conv2d(64, 128, kernel_size=(3, 3), stride=(2, 2), padding=(1, 1), bias=False)\n        (bn1): BatchNorm2d(128, eps=1e-05, momentum=0.1, affine=True, track_running_stats=True)\n        (relu): ReLU(inplace=True)\n        (conv2): Conv2d(128, 128, kernel_size=(3, 3), stride=(1, 1), padding=(1, 1), bias=False)\n        (bn2): BatchNorm2d(128, eps=1e-05, momentum=0.1, affine=True, track_running_stats=True)\n        (downsample): Sequential(\n          (0): Conv2d(64, 128, kernel_size=(1, 1), stride=(2, 2), bias=False)\n          (1): BatchNorm2d(128, eps=1e-05, momentum=0.1, affine=True, track_running_stats=True)\n        )\n      )\n      (1): BasicBlock(\n        (conv1): Conv2d(128, 128, kernel_size=(3, 3), stride=(1, 1), padding=(1, 1), bias=False)\n        (bn1): BatchNorm2d(128, eps=1e-05, momentum=0.1, affine=True, track_running_stats=True)\n        (relu): ReLU(inplace=True)\n        (conv2): Conv2d(128, 128, kernel_size=(3, 3), stride=(1, 1), padding=(1, 1), bias=False)\n        (bn2): BatchNorm2d(128, eps=1e-05, momentum=0.1, affine=True, track_running_stats=True)\n      )\n    )\n    (layer3): Sequential(\n      (0): BasicBlock(\n        (conv1): Conv2d(128, 256, kernel_size=(3, 3), stride=(2, 2), padding=(1, 1), bias=False)\n        (bn1): BatchNorm2d(256, eps=1e-05, momentum=0.1, affine=True, track_running_stats=True)\n        (relu): ReLU(inplace=True)\n        (conv2): Conv2d(256, 256, kernel_size=(3, 3), stride=(1, 1), padding=(1, 1), bias=False)\n        (bn2): BatchNorm2d(256, eps=1e-05, momentum=0.1, affine=True, track_running_stats=True)\n        (downsample): Sequential(\n          (0): Conv2d(128, 256, kernel_size=(1, 1), stride=(2, 2), bias=False)\n          (1): BatchNorm2d(256, eps=1e-05, momentum=0.1, affine=True, track_running_stats=True)\n        )\n      )\n      (1): BasicBlock(\n        (conv1): Conv2d(256, 256, kernel_size=(3, 3), stride=(1, 1), padding=(1, 1), bias=False)\n        (bn1): BatchNorm2d(256, eps=1e-05, momentum=0.1, affine=True, track_running_stats=True)\n        (relu): ReLU(inplace=True)\n        (conv2): Conv2d(256, 256, kernel_size=(3, 3), stride=(1, 1), padding=(1, 1), bias=False)\n        (bn2): BatchNorm2d(256, eps=1e-05, momentum=0.1, affine=True, track_running_stats=True)\n      )\n    )\n    (layer4): Sequential(\n      (0): BasicBlock(\n        (conv1): Conv2d(256, 512, kernel_size=(3, 3), stride=(2, 2), padding=(1, 1), bias=False)\n        (bn1): BatchNorm2d(512, eps=1e-05, momentum=0.1, affine=True, track_running_stats=True)\n        (relu): ReLU(inplace=True)\n        (conv2): Conv2d(512, 512, kernel_size=(3, 3), stride=(1, 1), padding=(1, 1), bias=False)\n        (bn2): BatchNorm2d(512, eps=1e-05, momentum=0.1, affine=True, track_running_stats=True)\n        (downsample): Sequential(\n          (0): Conv2d(256, 512, kernel_size=(1, 1), stride=(2, 2), bias=False)\n          (1): BatchNorm2d(512, eps=1e-05, momentum=0.1, affine=True, track_running_stats=True)\n        )\n      )\n      (1): BasicBlock(\n        (conv1): Conv2d(512, 512, kernel_size=(3, 3), stride=(1, 1), padding=(1, 1), bias=False)\n        (bn1): BatchNorm2d(512, eps=1e-05, momentum=0.1, affine=True, track_running_stats=True)\n        (relu): ReLU(inplace=True)\n        (conv2): Conv2d(512, 512, kernel_size=(3, 3), stride=(1, 1), padding=(1, 1), bias=False)\n        (bn2): BatchNorm2d(512, eps=1e-05, momentum=0.1, affine=True, track_running_stats=True)\n      )\n    )\n    (avgpool): AdaptiveAvgPool2d(output_size=(1, 1))\n    (fc): Sequential(\n      (0): Linear(in_features=512, out_features=256, bias=True)\n      (1): ReLU()\n      (2): Dropout(p=0.2, inplace=False)\n      (3): Linear(in_features=256, out_features=11, bias=True)\n    )\n  )\n)", "Notes": "Modalities: [10] with data set train size: 6400", "Step loss": 0.07935682684183121, "Accuracy class training 0": 0.8025854229927063, "Accuracy class training 1": 0.9936956167221069, "Accuracy class training 2": 0.8284434676170349, "Accuracy class training 3": 0.8713862299919128, "Accuracy class training 4": 0.9923861026763916,
…
